ece449/hw5_release/hw5_release/codes/model.ckpt (torch, 403838 bytes, 16 tensors)

net.0.weight f4 [128, 3]
000000 dd 5e a7 be 44 6d 63 bf e4 08 84 c1 3a 8c 88 bc
       -0.32689562 -0.888386 -16.504341 -0.016668428
000010 7b bf 9e bf 81 80 ae c0 50 f0 bc 3d 43 72 8f be
       -1.2402185 -5.4531865 0.092255235 -0.28016862
000020 df c5 86 c0 aa 5c e2 be a1 a2 0e c0 7e fc 7d c0
       -4.211654 -0.44211322 -2.228676 -3.968536
000030 29 29 b1 bd 93 b5 b9 bf 73 3a ed c0 bb 62 31 bd
       -0.08650429 -1.4508537 -7.413385 -0.043307047
000040 ab 9e 49 bf d7 64 d2 c0 bd 57 7b 40 18 d6 cb bd
       -0.78757733 -6.5748096 3.9272301 -0.099529445
000050 8c d5 3b c0 a3 20 90 bc 86 2a d5 be 6a 55 cc c0
       -2.9349089 -0.017593687 -0.41634005 -6.3854265
000060 ef 6c 3f c0 63 e5 88 3f a5 7c 39 3d c8 ab 00 be
       -2.9910238 1.0695003 0.045284886 -0.1256553
000070 23 76 a5 bf dd a2 3b c1 24 9c 84 3d 11 64 28 be
       -1.2926677 -11.727262 0.06475094 -0.16444422
000080 b1 e7 a3 c0 65 5a 8c 3c 86 85 02 bf 50 9d 97 c0
       -5.1220326 0.017132947 -0.5098499 -4.737953
000090 58 cf 3b be 4c e0 07 3e 98 b6 4b c1 42 d1 81 3d
       -0.18340814 0.13269156 -12.732079 0.06338741
0000a0 41 fb 8a be 8c fb 8d c0 95 b7 f0 3c 29 25 18 bf
       -0.27144817 -4.4369564 0.029384414 -0.594317
0000b0 e3 69 91 c0 f7 e3 e8 bd 46 56 09 c0 f6 1b ff c0
       -4.5441756 -0.11371606 -2.1458907 -7.972163
0000c0 fe c1 9a 3c bc 73 44 bf fd 4c 87 c0 b0 37 12 bd
       0.01889133 -0.76739097 -4.228148 -0.03569764
0000d0 46 96 46 bf ac d4 d7 c0 38 68 a7 bb 76 67 ce be
       -0.7757305 -6.744711 -0.0051088594 -0.4031331
0000e0 01 c5 c3 c0 fc ff a0 3c 59 6b 07 bf 33 04 8c c0
       -6.1177983 0.019653313 -0.52898175 -4.3755126
0000f0 b3 5b 4b be db 4c c7 bf ff 22 39 c0 7a 80 18 be
       -0.19859199 -1.557033 -2.892761 -0.1489276
000100 ab 36 3b c0 be 04 d1 c0 63 4f 11 bf c4 7e 65 c0
       -2.9252117 -6.531829 -0.5676176 -3.5858622
000110 13 88 d4 c0 06 cc 15 3d 5b 16 25 bf 68 b1 8a c0
       -6.6416106 0.036571525 -0.64487237 -4.334156
000120 ef 0f ab bd 6a 78 05 bf f6 cc e5 c0 aa 81 89 bd
       -0.083526485 -0.5213686 -7.1812696 -0.067141846
000130 4b f7 8f bf 1c ab 17 c1 6f 06 71 3d 34 f5 d9 be
       -1.1247343 -9.479275 0.058844026 -0.42569888
000140 7c 2e 95 c0 83 c5 41 bf f7 8d 70 c0 4b 0a 9e c0
       -4.6619244 -0.75692004 -3.7586648 -4.9387565
000150 ec cd 84 3e ec 28 29 be 49 8c a3 40 91 e0 0a 3d
       0.25938356 -0.16519517 5.1108747 0.03390557
000160 78 b2 2e be 42 58 be c0 04 06 33 bd 9d 42 a8 bf
       -0.17060268 -5.9482737 -0.04370691 -1.3145329
000170 a7 d4 e8 c0 3f 54 08 3d 3b 95 9a be 63 c0 99 c0
       -7.2759585 0.03328347 -0.3019198 -4.8047347
000180 eb 99 bb be 91 57 7b 3e 99 96 7b c1 3d 59 85 3d
       -0.36640868 0.24545123 -15.724267 0.065111615
000190 85 a6 80 be 9a af 94 c0 fb cc 89 3d 3d b0 ac be
       -0.25127044 -4.6464357 0.0672855 -0.3372821
0001a0 2e ea 89 c0 9b b3 5b be 1e 16 36 c0 10 8e 2e c1
       -4.3098364 -0.21455233 -2.8451 -10.909683
0001b0 e2 89 81 bd f7 8b 21 bf f1 06 b5 c0 54 99 67 bd
       -0.06325127 -0.63104194 -5.6570973 -0.05654271
0001c0 c4 79 9d bf 2e dc 0e c1 27 4e 18 3e ac 9b 4c c0
       -1.2302785 -8.928755 0.14873563 -3.1970015
0001d0 39 38 f9 c0 e0 9d e8 bc 2b 6b 5e bf 26 bc af c0
       -7.788113 -0.028395593 -0.86882275 -5.4917173
0001e0 98 c2 0e 3c eb b5 b7 be 1c 5b bb c0 f1 69 a4 bf
       0.008713387 -0.3588098 -5.8548717 -1.2844831
0001f0 b7 2f f9 3f 8a 85 13 c1 d4 94 1c 3c de a0 14 bf
       1.9467686 -9.220102 0.009556968 -0.58057964
000200 55 6a a5 c0 37 a2 90 3d 69 56 73 be a4 39 8c c0
       -5.16923 0.0706219 -0.23763432 -4.382036
000210 1f 8d 0a bd 52 17 92 bf ed a5 af c0 9f 41 7e 3d
       -0.03382599 -1.1413367 -5.4890046 0.0620743
000220 87 2a cc 3d dc 02 bf c0 76 51 ff 3e a2 91 65 c0
       0.09969049 -5.969099 0.49866837 -3.5870137
000230 0b 79 a6 c0 66 b6 1f 3d 18 b7 67 be c0 e0 ae c0
       -5.2022758 0.038992308 -0.22628438 -5.4649353
000240 12 32 73 bf df 12 09 bf a6 35 b6 c1 4b 69 f2 3e
       -0.94998276 -0.5354442 -22.776196 0.47345957
000250 b5 e4 32 40 b4 20 a1 3f 13 09 a9 3b 94 99 e9 be
       2.7952092 1.2588105 0.0051585524 -0.45624983
000260 83 61 aa c0 60 28 aa bd b0 21 1e be 54 b7 da c0
       -5.3244033 -0.08308482 -0.15442538 -6.834879
000270 37 fb 6b bd 72 f5 b6 be d1 3c f0 c0 5e a3 b4 3d
       -0.057612624 -0.35734135 -7.507424 0.08820222
000280 e7 96 c3 bc 3f 50 8c c0 6a 9b 05 be a3 27 1f bf
       -0.023875667 -4.3847957 -0.13047567 -0.62169856
000290 4a 50 4e c1 23 f6 7e 3d e7 43 b0 3d 0f 73 bd c0
       -12.894602 0.062246453 0.08606701 -5.9202952
0002a0 5d eb 24 bd cd 36 7a bf 61 18 97 c0 69 58 09 be
       -0.040263522 -0.9773987 -4.721726 -0.13412632
0002b0 57 06 c6 3e cc 8e 0f c1 d1 87 b3 bd d6 c3 22 bf
       0.38676712 -8.9723625 -0.08766139 -0.6358007
0002c0 cc ac 24 c1 0e 32 94 3c a6 b8 7e be 0b 3b 96 c0
       -10.292187 0.018090274 -0.24875125 -4.6947074
0002d0 4c 08 c8 3e aa 32 8b be 35 2b 38 bf 95 6d 6d 3d
       0.3906883 -0.2718709 -0.7194093 0.057965834
0002e0 44 cd 8d be b0 26 9e c0 20 9e 9d bf 72 27 42 c0
       -0.27695668 -4.9422226 -1.2313881 -3.0336576
0002f0 e8 bd 86 3f a9 d6 93 bf 50 4f 8b be e8 e2 95 c0
       1.0526705 -1.1549884 -0.27208948 -4.6839485
000300 4d 5c b2 3d f6 3b 66 3f 3c 9f c5 c0 18 1a ae bd
       0.08709011 0.89935243 -6.175688 -0.08501071
000310 99 15 4f bf d1 37 0b c1 2f 7f 83 3d c0 3e e2 be
       -0.8089233 -8.701127 0.06420743 -0.441885
000320 02 71 88 c0 3b 7c e3 3b f1 b6 a5 be 23 06 b1 c0
       -4.263795 0.0069422997 -0.32366136 -5.531999
000330 cf 8f a6 3d 8b 13 39 bf 6e 46 b6 40 7d c9 00 bd
       0.08132898 -0.72295445 5.6960974 -0.031442154
000340 f4 42 6b bf 1b f6 aa c0 66 f8 a2 bd 6a a3 a7 be
       -0.9189904 -5.342542 -0.079575345 -0.32741863
000350 99 aa 9d c0 ea 89 02 be 99 55 50 40 bf bb 2d c1
       -4.927075 -0.12747923 3.2552245 -10.858336
000360 31 cc 11 be b9 69 60 c0 17 d9 ff c0 a3 41 33 be
       -0.14238049 -3.5064528 -7.99525 -0.17505507
000370 df 71 e9 bf 55 e4 9f c0 1c 89 9c bd 3a da df bf
       -1.8237876 -4.9966226 -0.07643339 -1.7488472
000380 ab 68 13 c1 3d 94 39 bd 56 c7 9b bf 4d e3 c6 c0
       -9.213054 -0.045307387 -1.2170208 -6.2152467
000390 24 15 b4 bc a6 b9 04 c0 f4 42 d7 c0 7f 5a 2b be
       -0.021982737 -2.073831 -6.726923 -0.1673374
0003a0 29 aa 16 c0 13 53 53 c1 ca 0d a5 bd 8e d4 f1 bf
       -2.3541358 -13.207782 -0.08059271 -1.8892992
0003b0 4e 78 ce c0 b7 61 3b bd ca fc 2b bf 27 e2 c5 c0
       -6.4521856 -0.045747485 -0.671826 -6.1838565
0003c0 d3 f4 af bf 9f 36 12 40 fe c7 c6 3f ba 45 6a 3e
       -1.374659 2.2845838 1.5529783 0.22878161
0003d0 c1 5c 39 3d 64 b7 d9 bf 8b 94 41 3d 78 53 c7 be
       0.045254473 -1.7009091 0.047260802 -0.3893087
0003e0 11 2a 8d c0 8c 84 8a bc be ab de be 6f 3f d4 c0
       -4.411385 -0.016908906 -0.43490404 -6.6327434
0003f0 60 eb 93 bd 4e cc 9d bf 90 89 1e c1 a8 92 89 be
       -0.072226286 -1.2327974 -9.908585 -0.26869702

net.0.bias f4 [128]
000000 eb c0 9c c0 dd c2 a5 c0 5f 66 54 c0 d0 e7 85 c0
       -4.8985496 -5.180037 -3.3187482 -4.1845474
000010 37 69 ad c0 0c 13 81 c0 28 2f 34 c0 86 18 80 c0
       -5.4190936 -4.033575 -2.8153782 -4.0029936
000020 74 f9 8e bf 11 9e ae c0 96 92 72 c0 f2 84 5d c0
       -1.1169877 -5.456795 -3.790197 -3.4612393
000030 f3 26 8b c0 7f ef 7d c0 bb d6 8e c0 28 50 82 c0
       -4.3485045 -3.9677427 -4.463712 -4.0722847
000040 e4 08 9f c0 bc c1 af c0 cf c8 8d c0 f7 31 83 c0
       -4.9698353 -5.492399 -4.430763 -4.099849
000050 3b de b6 c0 ac 50 71 c0 88 19 43 c0 cf dd 74 c0
       -5.7146277 -3.7705488 -3.0484333 -3.8260381
000060 7f 8b 8d c0 3c ec 81 c0 58 8c 6a c0 6f 50 46 c0
       -4.4232783 -4.060087 -3.664816 -3.0986593
000070 e2 70 3c bf 7d 84 7e c0 0e e7 d4 c0 3f 8f 78 c0
       -0.73609746 -3.9768364 -6.653205 -3.883743
000080 1f 2e 47 c0 2f d4 87 c0 f6 a6 55 c0 99 30 66 c0
       -3.11219 -4.2446513 -3.3383155 -3.5967162
000090 44 a7 82 c0 5a 3a db c0 81 f5 77 c0 0b 64 8f c0
       -4.082918 -6.850873 -3.8743594 -4.4809623
0000a0 85 78 89 c0 d8 6e 49 c0 0b 81 8f c0 7d 21 6c c0
       -4.295962 -3.1473904 -4.4845023 -3.689544
0000b0 50 aa 03 c1 96 67 8f c0 96 70 2d c0 26 f9 7c c0
       -8.22908 -4.481395 -2.7099967 -3.9527068
0000c0 99 59 34 c0 7d 55 91 bf 43 94 6e c0 46 8a b5 c0
       -2.8179686 -1.1354214 -3.7277992 -5.673129
0000d0 fb 02 93 c0 4a d6 61 c0 7a 08 27 c0 eb d1 4d c0
       -4.594114 -3.5287042 -2.6098924 -3.2159374
0000e0 d3 77 94 c0 16 d2 8f c0 7b 1f ac c0 3b 12 6c c0
       -4.639627 -4.4943953 -5.378843 -3.6886127
0000f0 d8 16 70 c0 e2 28 5d c0 38 5c 3c c0 ea 77 65 c0
       -3.7513943 -3.4556203 -2.9431286 -3.585444
000100 96 ce a1 c0 40 54 a9 c0 60 55 79 c0 e2 10 83 c0
       -5.056468 -5.2915344 -3.8958359 -4.095811
000110 48 ee 83 bf ca 1e 6b c0 42 0b bc c0 3a 5c f4 bf
       -1.0307093 -3.6737542 -5.8763742 -1.9090645
000120 cb 27 58 c0 f7 20 a8 c0 34 4d a1 c0 ff 2b bc c0
       -3.3774288 -5.254024 -5.040674 -5.8803706
000130 8e 7c b6 c0 d0 ff 7e c0 14 81 a4 c0 45 26 97 c0
       -5.7027044 -3.9843636 -5.1407566 -4.7234216
000140 8e 3b 4d c0 0f 8e 2d c0 27 a8 8d c0 2f 30 6a c0
       -3.20676 -2.7117956 -4.4267764 -3.659191
000150 8a fe e5 c0 87 bc 4d c0 5b ac a4 c0 48 13 9b c0
       -7.1873217 -3.2146318 -5.1460395 -4.8461037
000160 ce ff b2 c0 44 36 9c c0 cd 99 9a c0 ed fd 8b c0
       -5.593726 -4.881624 -4.8312745 -4.374747
000170 9c 23 6c c0 46 0b de c0 fd 2a 91 c0 ad 11 98 c0
       -3.6896734 -6.938876 -4.5364976 -4.7521577
000180 17 58 8c c0 cb 18 9b c0 ac 77 6e c0 2a de 96 c0
       -4.385753 -4.8467765 -3.7260542 -4.7146196
000190 b9 51 6e c0 0d 93 ac c0 2c e8 74 c0 2a 42 5b c0
       -3.723738 -5.3929505 -3.8266706 -3.4259133
0001a0 42 2d 8c c0 f8 97 43 c0 27 b4 2b c0 b2 df 7a c0
       -4.3805246 -3.0561504 -2.6828706 -3.9199033
0001b0 14 7c 94 c0 31 93 90 c0 ac e9 82 c0 08 0e ac c0
       -4.6401463 -4.5179677 -4.0910244 -5.376713
0001c0 40 42 93 c0 10 f8 22 c0 51 f9 ba c0 81 9b 53 c0
       -4.601837 -2.5463905 -5.842934 -3.3063662
0001d0 f0 94 89 c0 6b ac 78 c0 30 a7 91 c0 7f f2 45 c0
       -4.299431 -3.8855236 -4.5516586 -3.0929258
0001e0 0b 80 85 c0 8a cb 80 c0 ad 04 2e c0 e9 bf ed bf
       -4.1718802 -4.024846 -2.7190354 -1.8574191
0001f0 a1 f3 86 c0 85 61 88 c0 42 aa 9c c0 ce be 5f c0
       -4.21724 -4.2619042 -4.8957834 -3.4960208

net.2.weight f4 [128, 128]
000000 0e a5 07 bf 24 9c 73 bf c0 1e bb bf 1c eb b9 bf
       -0.5298623 -0.95160127 -1.4618759 -1.4524875
000010 2e cd 5c bf 9c c3 9a bf 3c 33 9f bf 11 46 c0 bf
       -0.8625058 -1.2090945 -1.243751 -1.5021383
000020 09 f2 a3 bf 96 ff 3f bf b5 9a b4 bf 2d b2 cc bf
       -1.2808238 -0.7499937 -1.4109713 -1.5991875
000030 6b d0 80 bf ee 1d c5 bf 7e 5b a4 bf 55 8c 74 bf
       -1.0063604 -1.5399759 -1.2840421 -0.9552663
000040 bc 08 a7 bf 28 73 6c bf 3f 8e a3 bf 6f 8d c4 bf
       -1.304954 -0.92363214 -1.2777785 -1.5355662
000050 5e cc c6 bf cb 79 c0 bf 4c df d7 bf a8 25 c5 bf
       -1.5531118 -1.5037168 -1.686502 -1.5402117
000060 41 c3 bc bf 3d ec 80 bf 2f 29 ad bf bf ae d9 bf
       -1.4747087 -1.0072094 -1.3528193 -1.7006453
000070 ed ff 1c c0 ba 13 a6 bf 45 ef 4f bf e2 11 ba bf
       -2.4531205 -1.297477 -0.8122447 -1.4536707
000080 3b 87 80 bf ee 15 b2 bf 8d bc b7 bf 80 3d 6d bf
       -1.0041269 -1.3912942 -1.4354416 -0.92671967
000090 ef 94 b9 bf ef af ef be 87 f0 a5 bf d4 4b af bf
       -1.4498576 -0.46813914 -1.2964028 -1.3695016
0000a0 e2 3b a1 bf ea de 04 c0 76 27 a7 bf 22 07 da bf
       -1.25964 -2.0761056 -1.3058918 -1.7033427
0000b0 04 2e 05 bf 45 31 d1 bf 8a 30 83 bf 1f 8a be bf
       -0.5202334 -1.6343161 -1.0249188 -1.4885901
0000c0 08 5e 1e 3d 63 4d 43 c0 c3 e6 af bf b1 2a a1 bf
       0.038663894 -3.0515983 -1.3742298 -1.2591153
0000d0 75 9c 9e bf da dc db bf c3 6c 65 bf 2a 0a be bf
       -1.2391497 -1.7176774 -0.8961908 -1.4846852
0000e0 a6 e6 a5 bf 4e 40 b9 bf d8 28 2b bf e7 4f db bf
       -1.2961013 -1.4472749 -0.668592 -1.7133759
0000f0 75 39 c1 bf 6f 84 c2 bf 79 0d f5 bf 87 84 d6 bf
       -1.509566 -1.5196666 -1.9144737 -1.6759194
000100 e9 e7 dc bf 91 11 5d bf 88 1d cd bf 6a 82 b7 bf
       -1.7258273 -0.8635493 -1.6024637 -1.4336674
000110 21 dd 0f c0 fd 66 a8 bf 75 ef a8 bf cb 18 d5 bf
       -2.2478716 -1.315643 -1.3198076 -1.6648191
000120 3c 34 ad bf c3 52 b2 bf 98 35 51 bf af e7 4e bf
       -1.3531566 -1.3931507 -0.817224 -0.8082227
000130 94 33 82 bf fb cc 45 bf 67 e5 80 bf 88 f6 92 bf
       -1.017199 -0.772659 -1.0070008 -1.1481485
000140 f8 20 23 c0 71 a9 fe bf 87 e6 b1 bf e7 4d a2 bf
       -2.5488873 -1.989546 -1.3898476 -1.2680024
000150 92 26 15 bf 90 c3 c8 bf 6a 23 90 bf 08 b1 81 bf
       -0.5826198 -1.5684681 -1.1260808 -1.0132151
000160 b7 81 4b bf ec 7f a0 bf b1 f9 a3 bf f9 b2 be bf
       -0.79494804 -1.2539039 -1.2810575 -1.4898368
000170 cf b7 05 bf db 2d 95 bf 1c 79 7b bf a9 53 a6 bf
       -0.52233595 -1.1654619 -0.98231673 -1.2994281
000180 4f ef 62 bf 93 7f a5 bf d3 3b a9 bf 52 a5 a2 bf
       -0.88646406 -1.2929558 -1.3221382 -1.2706702
000190 d7 f5 8b bf 0e 02 62 bf 7f 3f 6e bf ad 92 f2 bf
       -1.0934399 -0.88284385 -0.9306564 -1.8951012
0001a0 c3 19 6b bf ae 16 bb bf 17 6d cb bf c6 1e bf bf
       -0.91836184 -1.4616296 -1.5892667 -1.4931266
0001b0 4e 62 84 bf d7 90 9f bf 6a ae b2 bf 2b cd 96 bf
       -1.03425 -1.2466077 -1.3959477 -1.1781362
0001c0 c5 c8 9c bf 31 60 d7 bf ea 00 77 bf 89 4f e5 bf
       -1.224877 -1.682623 -0.9648577 -1.7914897
0001d0 62 86 4b bf f6 83 c1 bf 68 3f a7 bf 29 1f d8 bf
       -0.79501927 -1.5118396 -1.3066225 -1.6884509
0001e0 c8 f0 f9 be 56 23 f7 bf 38 fd be bf db e6 3f c0
       -0.48816514 -1.9307659 -1.4921026 -2.9984653
0001f0 8c d1 b4 bf 10 58 d7 bf ee de 9b bf 12 ae 9d bf
       -1.4126449 -1.682375 -1.2177408 -1.2318747
000200 27 74 3b bf a4 f8 3d bf 28 b2 d0 bf e5 19 55 bf
       -0.7322411 -0.7420752 -1.6304369 -0.83242637
000210 04 2d 2d bf 76 62 85 bf 4e 7f 91 bf 38 8a 98 bf
       -0.67646813 -1.0420673 -1.1366975 -1.1917181
000220 fd e4 e4 bf a2 05 15 bf 2f 32 af bf 58 03 b3 bf
       -1.7882382 -0.5821172 -1.368719 -1.3985395
000230 fb 96 72 bf eb 5e a9 bf 89 f5 81 bf 46 8f 34 bf
       -0.9476163 -1.3232092 -1.0153056 -0.7053112
000240 ee 37 6d bf 4d f0 35 bf 92 30 97 bf aa c9 b9 bf
       -0.92663467 -0.71069795 -1.1811697 -1.4514668
000250 38 ed 49 bf 14 fb 06 bf 71 8b 6d bf f7 9e a4 bf
       -0.7887759 -0.52726865 -0.92790896 -1.2861012
000260 f9 a3 90 bf 3c 69 83 bf fd 3f b1 bf fb bc 6c bf
       -1.130004 -1.026649 -1.3847653 -0.9247586
000270 4a 1e 13 c0 c1 cb 93 bf cb 11 05 bf 28 8c b8 bf
       -2.2987237 -1.1546556 -0.51980275 -1.4417772
000280 35 14 9c bf 7e 82 b0 bf ec 77 c5 bf f6 e1 54 bf
       -1.2193667 -1.3789823 -1.5427222 -0.8315729
000290 47 7e 9b bf 75 bb f5 be 2f 04 7b be 8d ef 69 bf
       -1.2147912 -0.4799458 -0.24513315 -0.9138115
0002a0 da 9d a6 bf 87 7b d1 bf 94 f4 85 bf bd 0c b3 bf
       -1.3016922 -1.6365823 -1.0465264 -1.3988262
0002b0 a3 07 da be 93 3d 9e bf f4 1d 32 3e 0f 6c 9b bf
       -0.4258395 -1.2362541 0.17394239 -1.2142352
0002c0 a5 b4 97 bf e9 f8 62 c0 e2 74 96 bf 5f 9b 60 bf
       -1.1852003 -3.5464423 -1.175442 -0.8773708
0002d0 86 58 81 bf 13 92 c9 bf 6f 28 83 bf c0 aa b7 bf
       -1.010514 -1.5747703 -1.0246714 -1.4348984
0002e0 39 42 65 bf 77 ba b1 bf 4d 85 29 bf 47 25 c5 bf
       -0.8955417 -1.388503 -0.66219026 -1.5402001
0002f0 51 1b 6b bf 2b 91 b0 bf 77 45 a5 bf 73 46 ab bf
       -0.91838557 -1.3794302 -1.2911824 -1.3380874
000300 67 27 c8 bf 63 d1 35 bf a2 a1 96 bf b4 80 99 bf
       -1.5637025 -0.71022624 -1.1768076 -1.1992402
000310 c4 64 04 c0 11 b3 a3 bf 04 01 7b bf dd b0 0a c0
       -2.0686502 -1.2789022 -0.98048425 -2.1670449
000320 9d 8f da be 85 22 38 bf c6 2c 29 bf ca 44 37 bf
       -0.42687693 -0.7192767 -0.66083944 -0.7158934
000330 5b 95 0f bf eb 9e 27 bf 06 fd 35 bf a0 92 80 bf
       -0.56087273 -0.65476865 -0.7108921 -1.0044746
000340 ab 10 f1 bf e5 99 f8 bf 07 30 8c bf 90 5c 8f bf
       -1.8833212 -1.9421965 -1.0952157 -1.1200123
000350 2f 07 a3 be c8 2f c4 bf e2 d2 7f bf 5d 67 7c bf
       -0.31841418 -1.5327082 -0.99931157 -0.9859522
000360 ed 51 44 bf 72 81 60 bf 1b 46 6f bf 55 20 a4 bf
       -0.7668751 -0.8769752 -0.9346635 -1.2822367
000370 07 65 80 bf 8a 45 10 bf 49 47 61 bf d6 22 86 bf
       -1.0030831 -0.5635611 -0.879994 -1.0479381
000380 d6 ed 45 bf 9d 48 da be 51 11 9c bf 21 a2 82 bf
       -0.77316034 -0.42633525 -1.2192785 -1.0205728
000390 30 fe 6b bf 3a 5a 39 bf c8 3e 29 bf 8e 4d 35 bf
       -0.92184734 -0.724033 -0.6611142 -0.70821464
0003a0 0e 3a 60 bf 9c 42 ce bf dc b2 e8 bf 89 8d a5 bf
       -0.87588584 -1.6114078 -1.8179584 -1.2933818
0003b0 ac f4 37 bf ce 6a 8d bf 99 79 b1 bf 22 6b 31 bf
       -0.71857715 -1.1048219 -1.3865234 -0.69304097
0003c0 bb ac 94 bf a8 11 ff bf e8 41 0d bf 0d 52 b6 bf
       -1.1615213 -1.9927263 -0.5517869 -1.424379
0003d0 12 e5 19 bf 19 fb b5 bf e6 90 80 bf 23 57 b6 bf
       -0.6011516 -1.4217254 -1.004422 -1.4245342
0003e0 30 5e 6d bf 76 7f 6e bf 1d fa ca bf 4f cc 5a c0
       -0.92721844 -0.9316324 -1.5857579 -3.41872
0003f0 ab a8 92 bf 54 bf ba bf 13 e7 56 bf 11 e2 5c bf
       -1.1457723 -1.4589639 -0.8394634 -0.8628245

net.2.bias f4 [128]
000000 13 30 de bf 4a 50 c9 bf 07 dd b0 bf a2 1b a7 bf
       -1.7358421 -1.5727627 -1.3817452 -1.3055308
000010 2a de d1 bf b9 da c4 bf bd d5 ab bf 44 b3 2f 3f
       -1.6395924 -1.5379249 -1.3424603 0.6863291
000020 7e f6 a3 bf 4c 3b b6 bf 59 4c b7 be 35 cf 58 bf
       -1.2809598 -1.4236846 -0.35800436 -0.8469117
000030 25 c7 a7 bf 2a da b0 bf ec 47 17 c0 a5 67 ae bf
       -1.3107649 -1.3816578 -2.3637648 -1.362538
000040 5f 13 aa bf f9 1a fb bf 09 d1 39 3e 9b 55 e4 bf
       -1.3287162 -1.9617606 0.18146147 -1.7838625
000050 9c d0 c4 bf e1 c2 9e bf c1 6c a2 bf 1e 61 1a 3f
       -1.5376163 -1.2403222 -1.2689439 0.6030444
000060 30 28 b6 bf 1c 40 75 bf ce 59 ae bf fb 22 61 3d
       -1.4231014 -0.9580095 -1.3621156 0.054965
000070 7a 28 ac bf 11 b2 99 bf 51 5e a8 bf d7 3e df bf
       -1.3449852 -1.2007467 -1.3153783 -1.7441052
000080 2a 4a a9 bf bb 41 c4 bf 58 57 e9 bf a6 58 d5 bf
       -1.3225758 -1.5332559 -1.822978 -1.6667678
000090 7a 24 b4 bf 49 75 b9 bf a3 35 c4 bf f5 1b fa bf
       -1.4073632 -1.4488918 -1.5328869 -1.9539782
0000a0 51 eb bb bf e7 0d b4 bf e6 98 86 be 9b 3a aa bf
       -1.4681188 -1.4066743 -0.26288527 -1.3299135
0000b0 1a d1 ca bf e4 fa a4 3c df 49 96 bf fd bb 03 c0
       -1.5845063 0.020139165 -1.1741294 -2.058349
0000c0 6b 07 a4 bf f6 ef c9 bf 9d c8 bd bf 95 f7 af bf
       -1.2814764 -1.5776355 -1.4826847 -1.3747431
0000d0 e3 f7 f1 bf f4 ea ad bf 68 a4 ad bf 31 bd a3 bf
       -1.8903774 -1.3587327 -1.3565798 -1.2792112
0000e0 f7 63 26 be 78 bf a5 bf 09 26 ea bf f7 79 c1 bf
       -0.16249071 -1.2949057 -1.8292857 -1.5115346
0000f0 1f 53 cc bf fd 90 c0 be 0f 32 89 bf 99 7d ec bf
       -1.5962867 -0.37610617 -1.0718402 -1.8475829
000100 32 89 c7 bf 75 94 b0 bf cf fd 7d bf ab 3d c3 bf
       -1.5588744 -1.3795305 -0.99215406 -1.5253195
000110 fd 1f be bf 5a 0c cb bf 5c 90 cc bf 60 8b bf bf
       -1.4853512 -1.5863144 -1.5981555 -1.4964409
000120 dc e8 d0 bf 28 c4 b0 bf ad fc 25 bf 53 d0 c8 bf
       -1.6321063 -1.3809862 -0.6483868 -1.5688576
000130 bb 23 e6 bf 38 a9 db bf 2f e2 c0 bf ed 9d 8a bf
       -1.7979654 -1.7161016 -1.5069026 -1.0829445
000140 e7 3a 31 bf f6 31 c0 bf 38 8a 01 c0 b5 f7 95 bf
       -0.692305 -1.5015247 -2.0240612 -1.1716219
000150 9f 1b 71 3f f2 27 f0 bf 91 fe 9b bf 55 45 d0 bf
       0.9418277 -1.876219 -1.2187063 -1.6271158
000160 51 76 e7 bf 3f 45 bd bf d9 28 cc bf c3 87 c0 be
       -1.8082982 -1.4786757 -1.5949966 -0.37603578
000170 3d 64 d0 bf a6 6e c1 bf 34 a5 b4 bf ae 93 0d c0
       -1.628059 -1.5111892 -1.4112916 -2.2121387
000180 8a 4a bb bf 4a 40 eb bf 17 d7 fd bf 4a 91 8a bf
       -1.4632123 -1.8378994 -1.9831265 -1.0825589
000190 13 35 b3 bf 2b 63 ca bf d7 94 ee bf db 86 b6 bf
       -1.4000572 -1.5811514 -1.8639172 -1.4259905
0001a0 12 cb fd bf f3 84 68 bf 7e 1b 06 c0 ff a4 19 c0
       -1.9827597 -0.90827864 -2.095428 -2.4006956
0001b0 b5 59 d8 bf 88 fe f0 bf d6 be b9 bf 9c 47 c9 bf
       -1.6902376 -1.8827677 -1.4511364 -1.5724978
0001c0 61 03 e8 bf a4 f3 ba bf fb a0 8b bf f1 86 af bf
       -1.8126031 -1.4605603 -1.0908502 -1.3713056
0001d0 20 9a c8 bf 2e fa 5c bf b0 ba 0c c0 82 75 be bf
       -1.5672035 -0.86319244 -2.1988945 -1.487961
0001e0 5c 49 be bf b0 9e a9 bf 3a 9f ad bf f5 17 ca bf
       -1.4866138 -1.3251553 -1.3564217 -1.5788561
0001f0 15 5c ba bf da 9b 65 3f 5d aa 28 c0 40 9e b2 bf
       -1.4559351 0.89690936 -2.6353981 -1.3954544

net.4.weight f4 [128, 128]
000000 1f 9a f4 3e 81 3e 8c 3e 09 37 b7 3e 30 26 4e 3f
       0.47773835 0.27391437 0.35784176 0.8052702
000010 c3 bc 0e 3f fe 4e d8 3e ec e8 05 3f 2a 49 df 3f
       0.5575678 0.42247766 0.52308536 1.7444203
000020 cd 75 6c 3f d9 56 d7 3f 1e 64 ca 3e 56 71 1d 40
       0.9236725 1.6823379 0.39529508 2.4600425
000030 91 be d2 c0 bf 34 3b 3f 42 a6 6e c0 84 31 fb 3e
       -6.5857625 0.7312736 -3.7288976 0.49061215
000040 fd 51 2d 3f 85 d3 33 3f 0b de 2b 40 ed 16 69 3f
       0.6770323 0.7024463 2.6854274 0.91050607
000050 75 ed 16 3f 62 75 57 3f d4 25 12 3f c1 be 10 3f
       0.5895608 0.84163487 0.5708897 0.5654107
000060 86 18 bf 3e 3e ee 16 40 6a eb 34 3f 6a 56 ff 3d
       0.37323397 2.3582911 0.70671713 0.12467654
000070 8b 97 52 3f 2a 1d 2e 3e 46 c5 ce 3e 89 1c 84 3f
       0.82262486 0.17003313 0.40384883 1.0321208
000080 40 71 09 3f a6 14 88 3f c7 d4 ae 3e df 1a f9 3e
       0.5368843 1.0631301 0.3414671 0.48653314
000090 86 81 86 3e b0 18 ca 3e 93 c9 91 3e 08 d1 18 3f
       0.26270694 0.3947196 0.284741 0.59693956
0000a0 19 1a 4e 3f 70 16 f0 3e 26 3e 01 3f e4 2e 30 3f
       0.8050857 0.46892118 0.50485456 0.6882155
0000b0 af 22 ea 3e 7a 06 87 3f 2a 4d e2 3f 3a 96 34 3f
       0.45729586 1.0548851 1.7679799 0.7054173
0000c0 61 1d 48 3f 76 a7 0c 3f 3b e4 56 3f 75 cb 5f 3f
       0.7816983 0.54943025 0.83942 0.87419826
0000d0 6b 3f e8 3e 80 a5 98 3f 3d 97 76 3e d7 09 0b 3f
       0.45360884 1.1925507 0.2408113 0.5431189
0000e0 2d b1 e3 bd 03 53 71 3f fb ab e3 3e bc 8c cb 3e
       -0.11117778 0.9426729 0.44467148 0.3975581
0000f0 ff 64 f1 3e fa 2c 44 3f c2 4d d5 3e c4 19 7a 3f
       0.47147366 0.7663113 0.41660887 0.97695565
000100 0d 8a 69 3f 55 48 0c 3f 84 e5 8e be 78 83 06 3f
       0.91226274 0.5479787 -0.27909482 0.52544355
000110 9a f8 ed 3e 07 cc 2d 3f 5c 46 01 3f d7 9d c9 3e
       0.4647873 0.67889446 0.50497985 0.39378235
000120 2f b2 03 3f 50 55 0b 3f fa 1e 5e 3d a1 63 ca 3e
       0.5144376 0.5442705 0.05422876 0.39529136
000130 f8 de 9a 3e 92 ac 12 3f 27 0b 07 3f d1 ec 0a 40
       0.30248237 0.5729457 0.5275139 2.1707041
000140 41 b8 4c 3f 56 82 9f 3e ef 84 42 3f 7f 6f e1 3f
       0.7996865 0.31154126 0.7598409 1.7612151
000150 71 af 9c bf af fa 0d 3f 85 55 89 be 3a 47 e8 3e
       -1.224104 0.5546064 -0.2682306 0.45366842
000160 f0 60 2e 3f a2 99 c3 3e a9 ea 9d 3e c7 9e b8 3c
       0.68116665 0.3820315 0.30843094 0.022536648
000170 9c ac 4d 3f 45 14 40 3f 3b f0 5f 3f e9 2a 14 3f
       0.80341506 0.7503093 0.8747594 0.57877976
000180 65 c8 00 3f 64 e2 ca 3e ef 3e 09 3f 1e 6d cc 3f
       0.5030578 0.39625847 0.53611654 1.59708
000190 f9 5d 2c 3f 5b 2a 7f 3e 57 89 0b 3f ba ce f3 3e
       0.6733089 0.24918501 0.5450644 0.47618657
0001a0 cd d8 f8 3e bb cc cf bf d3 a3 1a 3f 32 d9 f1 be
       0.48602906 -1.6234354 0.60406226 -0.4723602
0001b0 89 a0 07 3f 7b c4 8a 3f 92 b6 ea 3e fa 89 bb 3e
       0.5297933 1.0841211 0.45842415 0.36628705
0001c0 1c 70 eb 3e 66 8f d3 3f de df a6 3f d2 27 21 3f
       0.4598397 1.6528137 1.3037069 0.62951386
0001d0 60 30 0d 3f bf a3 a6 3e f9 cb ed 3e d3 37 27 3f
       0.5515194 0.32546803 0.4644468 0.65319556
0001e0 37 73 bc 3e d3 05 cf 3e e5 8f 35 3f ee 38 95 3e
       0.36806652 0.4043413 0.7092269 0.29144996
0001f0 ce ab e2 3e 19 c9 45 3f e5 16 07 c0 63 be 41 3f
       0.44271702 0.77259976 -2.1107724 0.7568113
000200 55 ed 6a bf 65 f9 2a bf e9 a6 d6 be 15 18 cc be
       -0.9176839 -0.66786796 -0.41924217 -0.39862123
000210 7e ca 88 bf 25 7e 45 bf 14 1c 7e bf 2e dd f3 c0
       -1.0686796 -0.77145606 -0.99261594 -7.6207495
000220 37 89 3d bf ea 15 8d be 3a ea 7a bf a0 11 72 3d
       -0.740375 -0.27555782 -0.9801365 0.05909884
000230 e6 5f b7 bf ca fe 06 bf 2d 8c 9e c0 e6 c2 6b bf
       -1.4326141 -0.5273253 -4.9546113 -0.92094266
000240 e2 41 3f bf ca 1d 85 bf 98 0a f3 3e eb db 20 be
       -0.74709904 -1.0399716 0.4746902 -0.15708892
000250 a0 49 76 bf 1c 6d 31 bf 30 8b 0c bf 96 48 13 c0
       -0.9620609 -0.6930711 -0.54899883 -2.3013053
000260 2a 41 ff be 58 8e 86 be 3d 57 67 bf 90 a8 80 be
       -0.49854404 -0.26280475 -0.9036749 -0.25128603
000270 d0 cb 36 bf 3b 54 16 bf 38 3b 2f bf e6 30 fe be
       -0.71404743 -0.58722275 -0.68449736 -0.49646682
000280 e6 2c 16 bf b7 4d 54 be fd 5d 4f bf 9f ca 58 bf
       -0.5866226 -0.20732771 -0.8100279 -0.84684175
000290 f2 3f 04 bf 37 5f 2a bf e6 43 51 bf 45 58 90 bf
       -0.5166007 -0.66551536 -0.8174423 -1.1276938
0002a0 a2 43 db be 7c eb 37 bf ab 09 c4 c0 3d 32 2d bf
       -0.42825037 -0.71843696 -6.12618 -0.6765478
0002b0 b3 d7 44 bf 8b 06 9b bf b5 1a f0 be f3 2c 60 bf
       -0.7689163 -1.2111372 -0.46895376 -0.8756859
0002c0 75 1c 31 bf c3 d3 7c bf 93 2e 24 bf 58 5a 2a bf
       -0.69184047 -0.9876062 -0.64133567 -0.66544104
0002d0 cf f6 65 bf 86 45 4c bf 94 be 28 bf a4 0b 6b bf
       -0.89829725 -0.79793584 -0.659158 -0.9181464
0002e0 d3 6f 68 c0 44 1f 34 bf 54 fa 1b bf c0 54 0c bf
       -3.6318252 -0.7036021 -0.60928845 -0.5481682
0002f0 a4 46 45 bf f2 f8 0b c0 e0 ca 4e 3f f4 77 4e bf
       -0.77060914 -2.1870694 0.8077831 -0.80651784
000300 2a 57 f6 bd b6 f1 43 bf 06 e2 a8 bf 3a 88 26 bf
       -0.12028344 -0.76540697 -1.3193977 -0.65051615
000310 2b f9 37 bf 56 0d 4a bf ed c1 52 bf e9 fc ef be
       -0.71864575 -0.789266 -0.8232716 -0.46872643
000320 82 dc 10 bf a5 a3 07 bf 6e 5f 47 bf d6 7a 29 bf
       -0.5658647 -0.52984077 -0.7787999 -0.6620306
000330 bd 8d 4a bf 15 02 48 bf 54 db 46 bf df f1 72 be
       -0.79122525 -0.78128177 -0.7767842 -0.23725079
000340 bb e7 00 c0 0b d8 30 bf 0b 15 70 bf ec 44 11 bf
       -2.0141437 -0.69079655 -0.9378211 -0.5674579
000350 52 23 c6 be 54 c7 1c be e7 72 0e bf 52 57 44 bf
       -0.38698822 -0.15310413 -0.5564408 -0.7669574
000360 c5 9c 64 bf 0e ea 33 bf a4 7e 3b bf d9 e6 89 c0
       -0.8930171 -0.70279014 -0.73240113 -4.3094296
000370 ed 3e 35 bf a9 70 22 bf 99 c0 13 bf 4e a6 53 bf
       -0.7079914 -0.63453156 -0.57715756 -0.82675636
000380 ee 86 11 bf 3b 21 72 bf 4b 52 77 bf 86 00 0f be
       -0.5684651 -0.94581956 -0.96609944 -0.13965043
000390 27 f0 37 bf d6 2f ed be 24 e3 66 bf e0 42 93 bf
       -0.7185082 -0.46325558 -0.9019034 -1.1504784
0003a0 9b f4 6d bf 07 d6 1e be ad ca 8e bf 85 dd 3f c0
       -0.92951363 -0.15511332 -1.1155602 -2.9978955
0003b0 25 cb 57 bf 3b 14 01 bf bb b8 11 bf 1b 00 49 bf
       -0.8429435 -0.50421494 -0.569225 -0.78515786
0003c0 23 91 13 bf ea 53 c5 be 75 35 d1 be ff b3 00 bf
       -0.57643336 -0.38540584 -0.40861097 -0.5027465
0003d0 ce ae 61 bf 3b d2 1d bf ee 1a 8c bf 40 4a 30 bf
       -0.88157356 -0.6164891 -1.0945718 -0.68863297
0003e0 c2 30 26 bf db d3 28 bf 16 9d f0 be 4e 9f 06 bf
       -0.6491815 -0.65948266 -0.46994847 -0.5258683
0003f0 18 f9 2f bf 4a 39 89 bf dd 4e 2d bf e3 7d 2e bf
       -0.6873946 -1.0720608 -0.6769846 -0.6816084

net.4.bias f4 [128]
000000 13 77 af bf 25 f5 2b c0 fa 65 5d c0 7c 83 66 c0
       -1.3708214 -2.6868374 -3.4593492 -3.6017752
000010 be 16 99 c0 30 eb 88 c0 ad 20 5d bd 80 6c 2d bf
       -4.784026 -4.2787094 -0.05398624 -0.6774368
000020 36 c5 25 c0 68 f1 90 3f 7c f4 e4 bf b8 ab 98 c0
       -2.5901618 1.1323671 -1.7887111 -4.7709618
000030 9f ef 93 3f 44 de 27 bf ad 80 55 c0 40 71 fc 3e
       1.1557502 -0.65573525 -3.3359787 0.49305153
000040 44 e5 88 c0 34 92 69 c0 a3 49 99 c0 24 22 80 c0
       -4.2779865 -3.6495485 -4.790239 -4.0041676
000050 cc ff 04 c0 8a b1 55 c0 84 ef 7a c0 2c b0 71 c0
       -2.0781126 -3.3389611 -3.9208689 -3.7763777
000060 ec c6 5d c0 ce 89 92 c0 2c 87 7a c0 26 40 95 c0
       -3.4652662 -4.579322 -3.9145002 -4.6640806
000070 26 e5 85 c0 21 2d c9 bf a5 18 2b 3e 0a cc fb bf
       -4.184222 -1.5716897 0.1670862 -1.9671643
000080 5c 51 35 c0 96 3d 8c c0 37 c8 47 c0 33 06 a6 c0
       -2.8330908 -4.382518 -3.1215951 -5.1882567
000090 62 3e 8d 3f b2 0b 4f c0 b8 60 4f c0 08 78 5c c0
       1.1034663 -3.2350888 -3.2402782 -3.4448261
0000a0 c7 68 2a c0 57 12 70 c0 46 bb 78 c0 8e 0e d3 bf
       -2.662645 -3.7511194 -3.8864303 -1.6488817
0000b0 64 d7 57 c0 1a eb 4f c0 c1 9c 3a c0 59 7b c6 bf
       -3.3725214 -3.2487245 -2.9158175 -1.5506393
0000c0 49 f1 0e c0 d9 7c 8b c0 be fd f0 bc 5b c4 a6 be
       -2.2334769 -4.35899 -0.029417869 -0.32571682
0000d0 dc 7b 4f c0 a9 5b ba bf 82 99 09 c0 52 79 71 c0
       -3.2419348 -1.4559222 -2.1499944 -3.7730298
0000e0 f7 2b d3 be 4b e0 96 c0 74 e3 a9 c0 30 2e 46 c0
       -0.4124448 -4.7148795 -5.3090153 -3.096569
0000f0 17 37 37 c0 8b 5e 65 c0 29 2b 4e c0 97 2a 79 c0
       -2.8627374 -3.5838954 -3.2213843 -3.8932245
000100 83 fd 9f c0 8f fd 4f bf 32 78 64 c0 7a 14 77 c0
       -4.9996963 -0.81246275 -3.5698361 -3.8606248
000110 1f ec 2f c0 6f 09 86 c0 48 f1 5c bf 0f 53 85 c0
       -2.7487867 -4.1886516 -0.86305666 -4.166389
000120 13 12 3d c0 2b dd a5 bf 18 07 75 be 11 2f fa bf
       -2.9542282 -1.295812 -0.23928487 -1.9545614
000130 c0 1d 97 c0 ea 08 32 c0 e5 cc 28 3f 1e 9e 2a c0
       -4.7223816 -2.781794 0.65937644 -2.6659007
000140 37 96 87 c0 7c e5 8e c0 a8 71 42 be f7 3c 44 c0
       -4.237087 -4.465513 -0.18988669 -3.066221
000150 59 db ea be 09 da a3 3f 7e 13 bc c0 8a 53 2e c0
       -0.45870474 1.2800914 -5.8773794 -2.7238488
000160 6c a9 31 bf 17 eb 8e c0 47 b1 95 c0 fe 53 8c c0
       -0.6939914 -4.4661975 -4.6778903 -4.385253
000170 a9 ce 03 c0 82 b2 66 c0 b0 e9 5a c0 90 ee 66 c0
       -2.0594885 -3.6046453 -3.4205132 -3.6083107
000180 8a ae 84 c0 46 27 44 c0 e7 6d 43 c0 32 0c 62 c0
       -4.146306 -3.064897 -3.053583 -3.5319943
000190 ea 4c 8b c0 5d 6f 7a c0 3c bc 05 c0 e4 bb 90 c0
       -4.353139 -3.913047 -2.089614 -4.522936
0001a0 55 40 7b be a3 dd bb bf 33 f1 39 c0 73 a3 0c 3e
       -0.2453626 -1.4677013 -2.9053466 0.13734226
0001b0 eb 04 83 c0 90 ac 88 c0 58 57 9b bf 9f 38 87 c0
       -4.0943503 -4.2710648 -1.213603 -4.2256618
0001c0 ce f1 95 bf a3 09 a1 c0 1c 39 82 bf b3 3d ba c0
       -1.1714418 -5.0324264 -1.0173678 -5.8200316
0001d0 ff a6 55 3f 5f db 6a bf e6 04 a2 bf b9 33 86 c0
       0.8345794 -0.91740984 -1.2657745 -4.193814
0001e0 83 f4 8f c0 49 4f a5 bf f6 01 82 bf bc 08 0c 3f
       -4.4985976 -1.2914821 -1.0156848 0.5470083
0001f0 9c 27 47 c0 ee 4a 9f 3e a8 90 f8 bf d3 35 97 c0
       -3.1117926 0.31111854 -1.9419146 -4.7253203

net.6.weight f4 [128, 128]
000000 bd eb 02 c0 bd 69 b2 3f ec b7 33 3f 4a b2 37 3f
       -2.0456383 1.3938519 0.7020252 0.7175642
000010 83 b2 be 3f a2 92 07 3f e1 cb 1e 3f 31 86 03 3f
       1.4898227 0.5295812 0.62029845 0.51376635
000020 ab 46 19 40 94 26 53 c0 0c 8e b1 bc fc 11 c9 3f
       2.3949382 -3.2992296 -0.021674179 1.5708613
000030 d3 b4 0b 40 6f 73 76 3f 13 1f 9e 3f d1 7b e8 bf
       2.1829116 0.9626989 1.2353233 -1.8162786
000040 e1 77 e5 3e 53 34 f2 3f 78 0e 85 3f bb 33 d7 3f
       0.44818023 1.8922218 1.039504 1.6812662
000050 d2 e2 0b c0 ac 6c 15 3f 7c b9 56 bf 40 b2 83 3f
       -2.185719 0.58368945 -0.83876777 1.0288773
000060 1d 43 ff 3f 32 e9 42 be c2 fd 9f 3f 51 0d 41 3f
       1.9942356 -0.1903427 1.2499316 0.75410944
000070 e7 37 89 3f 0e 0d bd bf f8 f1 51 c0 8c 07 09 40
       1.0720185 -1.4769609 -3.2803936 2.1410856
000080 6d 59 5f bf 65 90 a5 3f db 59 c5 3f 5a 9e bf 3f
       -0.8724583 1.2934691 1.5418047 1.49702
000090 9f 94 3e 40 43 64 98 3f 6e d5 00 40 05 fd 09 be
       2.977821 1.1905597 2.0130267 -0.13475426
0000a0 23 f7 c3 3f f7 d3 f2 3e b9 18 64 3f 90 6b a2 bf
       1.5309795 0.4742734 0.89100224 -1.2689075
0000b0 3f c6 0d 40 58 39 f7 3f 64 f1 f4 be 1f 37 06 40
       2.215225 1.9314375 -0.47840416 2.0971143
0000c0 39 ef 04 3f b7 5a c9 3f a8 1d 7d 3f d3 82 cf 3d
       0.51927525 1.5730809 0.98873377 0.101323746
0000d0 8c f9 52 bf 1d 39 df 3f cc 2f b9 3f a4 0c df 3f
       -0.8241203 1.7439305 1.4467711 1.7425733
0000e0 cd 30 28 bf 8c c2 df 3e d0 b6 9f 3f 08 b0 4b bf
       -0.65699464 0.43703115 1.2477665 -0.7956548
0000f0 f3 bd 59 be 49 99 01 40 d8 d5 bd 3f d7 5b 2e 3f
       -0.21263866 2.0249808 1.4830885 0.68108886
000100 65 44 a2 3f 8c 8f 53 3f bc 8f bd c0 bc 63 bb 3f
       1.2677122 0.8264091 -5.9237957 1.4639812
000110 c1 50 9d be df f8 cb 3f b9 92 a7 bf 22 45 d0 3e
       -0.30725673 1.5935324 -1.3091651 0.40677744
000120 1a 0f 99 3f 7e d6 5c c0 85 8c 14 3f f6 8d ee bf
       1.1957734 -3.4505916 0.58026916 -1.8637073
000130 f6 2d 58 3f 17 0e d6 bf 81 9a f7 3f 9e ab f5 c0
       0.8444513 -1.672305 1.9344026 -7.6771994
000140 38 30 b6 3f 55 b0 98 3f c6 b0 24 40 72 5c 00 3f
       1.4233465 1.1928812 2.5732894 0.5014106
000150 eb a6 20 c0 3d 01 82 3f 8a 36 5c 3f 2c 98 8a 3f
       -2.5101879 1.0156628 0.8602072 1.0827689
000160 7e 6f 48 40 77 c7 54 bd ba 9c 5d be 9d 03 00 bf
       3.131805 -0.051948037 -0.21641818 -0.50005513
000170 0d f0 67 be aa 42 64 bf 03 51 8e 3e 30 98 ea 3f
       -0.22650166 -0.8916422 0.27796182 1.8327694
000180 35 30 a2 3f 06 4c 3c 3e 08 81 49 3f e1 94 34 3f
       1.2670962 0.18388376 0.7871251 0.7053967
000190 ec 24 cb 3f c8 2e c9 be ab f0 fc 3f dc 4f 77 3f
       1.5870643 -0.39293504 1.9760946 0.9660623
0001a0 5e f6 1a bf 09 d0 1b 3f 4e ab 0b 40 21 77 d4 bf
       -0.60532176 0.6086431 2.1823306 -1.6598855
0001b0 2a 93 c5 3f ab 5f 81 3f 00 73 c9 bf 37 f3 cf 3f
       1.5435536 1.010732 -1.573822 1.6246098
0001c0 fd c8 04 c0 53 75 34 3f 45 af 47 bf 30 47 34 3f
       -2.0747674 0.7049152 -0.78001815 0.70421124
0001d0 ef f7 22 40 8c e5 a7 3f 22 67 a9 3f 5f e7 bd 3f
       2.5463827 1.3116927 1.3234599 1.4836234
0001e0 d8 60 b0 3f 01 7c 2d c0 07 1b a3 3e 87 d9 3a bf
       1.3779554 -2.7106936 0.31856558 -0.7298817
0001f0 31 07 58 be 62 5f 1d be 32 eb 98 3f eb 28 a5 3f
       -0.21096493 -0.15368417 1.1946776 1.2903112
000200 fa 59 62 bf e2 2b 26 bf e0 6f d5 be b9 f1 b5 be
       -0.88418543 -0.6491071 -0.41686916 -0.35535982
000210 82 33 2d 3f fc 3a 4c be 95 08 97 3f 13 9d 92 3f
       0.6765672 -0.19944376 1.1799494 1.1454185
000220 ff 18 07 be ab 22 11 bf e0 a2 99 3e 2c f2 08 3f
       -0.13193129 -0.56693524 0.30007076 0.53494525
000230 7b 50 af 3f 80 e1 c2 b7 95 08 78 3f 75 77 fb c0
       1.3696436 -2.3231609e-05 0.96888095 -7.858332
000240 8f 74 15 bf 94 45 23 3f fb 0d dc 3e dc 41 55 3e
       -0.5838098 0.6377804 0.42979416 0.20825905
000250 ee 84 87 c0 d9 67 3f 3f dd 95 f0 bf cd a0 73 3f
       -4.234977 0.74767834 -1.8795735 0.9516724
000260 53 6d 85 be da 84 a7 bf ea 72 09 3e 9d 0a a8 bd
       -0.2605997 -1.3087418 0.13422742 -0.08205149
000270 8e e4 d9 3f c0 18 1b 3e 1b 09 c5 c0 73 d0 05 3f
       1.7022874 0.1514616 -6.1573615 0.52271193
000280 6f 1f 35 c0 49 db fe be f1 ef d4 3f 36 62 28 3f
       -2.8300436 -0.49776676 1.6635724 0.6577486
000290 79 66 1d c0 57 d2 28 3f 51 68 e4 3e 6c 55 04 c0
       -2.4593794 0.65945953 0.44610837 -2.0677137
0002a0 d8 67 19 3f 1e b8 1f bf 66 c8 45 bf 79 2e 83 c0
       0.5992408 -0.62390316 -0.7725891 -4.099423
0002b0 33 62 0a 3e 6b 56 1d 3f cb fe 2f c0 d0 7b ac 3d
       0.13514023 0.6145999 -2.7499263 0.08422053
0002c0 b7 95 b3 3f 86 59 4c 3f 67 7d 73 3f f0 4f 2b 3f
       1.4030064 0.798241 0.95113224 0.6691885
0002d0 7b 2b 28 c0 3a 24 47 bf 56 a9 56 c0 b4 16 96 3e
       -2.6276538 -0.7778965 -3.3540854 0.29314196
0002e0 3b 12 08 bf 1d e1 db 3d d2 a7 0e 3f 6e 7f 1d c0
       -0.5315282 0.10736296 0.55724823 -2.4609027
0002f0 2c 08 5b c0 6a 8c 89 3e 7f 4c 49 bf 8a 8d 27 3f
       -3.4223738 0.2686494 -0.7863235 0.65450346
000300 bf e8 db 3e 0a dd a2 bf d8 36 a4 bf 22 f3 11 3f
       0.4295101 -1.2723706 -1.2829237 0.57011616
000310 e3 7d 83 be 6d 88 1d 3f fc 22 58 3e 74 24 84 bf
       -0.2568198 0.61536294 0.21107095 -1.0323625
000320 14 9f 0b bf 8f c2 50 bf 81 28 a3 3e 27 81 8f c0
       -0.5453961 -0.8154687 0.3186684 -4.4845157
000330 a2 c5 7d 3d 9e d6 bf c0 23 8b f4 3f 3f 0f e1 be
       0.061956055 -5.9949484 1.9104961 -0.43956944
000340 6b 3d 3c 3f ce 66 a8 3e d9 a3 7e 3f 93 be 61 be
       0.73531216 0.32890934 0.9946876 -0.22045355
000350 27 15 5d c0 e1 35 bb 3d 0d 53 2a 3f 9e be aa bd
       -3.454416 0.09141136 0.66532975 -0.083371386
000360 d6 6f 3f bf 9d 3b f3 bf 0e c1 ec bf 0c 20 0e bf
       -0.74780023 -1.9002568 -1.8496416 -0.5551765
000370 75 fa c1 3f 70 7f 25 c0 27 d6 e6 be 25 02 e6 bc
       1.5154558 -2.5859032 -0.4508526 -0.028077194
000380 6f 82 f3 bd c0 ee 90 3c 18 6a 88 be 40 6d e9 3f
       -0.118901126 0.01769197 -0.26643443 1.8236465
000390 ee 04 de 3e b2 59 b4 bf 82 d2 11 bf c3 44 25 3f
       0.43363136 -1.4089873 -0.56961834 0.6455805
0003a0 d0 32 4a 3f c4 72 f5 3f cc 6e 2d be 3c 4c 66 c0
       0.78983784 1.9175649 -0.16936797 -3.598403
0003b0 83 97 52 3f 38 ec 09 3f 29 7f 75 c0 95 c0 13 3f
       0.8226244 0.53876066 -3.8358862 0.5771573
0003c0 a0 ef a4 3f fa ad 2b 3e 87 14 80 3f 5d 6e c3 3e
       1.2885628 0.16765586 1.0006264 0.38170138
0003d0 8c e0 0f bf d7 ef 48 40 9c ab 29 40 b3 49 82 3e
       -0.56202006 3.1396387 2.6510992 0.25446853
0003e0 b9 74 56 3e c1 1c 88 c0 e8 e8 0d c1 a5 bc 53 3f
       0.20942964 -4.25351 -8.869362 0.82709724
0003f0 5d ef 00 c0 a1 04 94 c0 3f f9 e5 bf 7d b6 e8 3e
       -2.0146096 -4.625565 -1.7966689 0.45451728

net.6.bias f4 [128]
000000 91 a8 0c bf 08 df ba be 18 2a 7d bf a8 f3 02 c0
       -0.5494471 -0.36498284 -0.98892355 -2.0461216
000010 d2 19 0d c0 83 00 2c bf b2 89 6c bf be 2d 2f 3f
       -2.204701 -0.6718828 -0.92397606 0.6842917
000020 eb 18 fb bf f9 24 bf bf c7 95 05 bf e3 ed dc bf
       -1.9616979 -1.4933158 -0.5218167 -1.7260097
000030 d6 b6 a0 bf f6 35 8e bf f1 de cf 3e 4a a0 9b be
       -1.2555797 -1.1110218 0.40599778 -0.30395728
000040 16 f2 24 bf e1 e1 28 c0 10 8b fd 3e 14 1b 31 bf
       -0.64431894 -2.6387866 0.4952016 -0.6918194
000050 cf e6 a5 bf d3 73 90 3f c7 a1 0e c0 f8 3a 54 c0
       -1.2961062 1.1285347 -2.228624 -3.3160992
000060 b1 17 ef bf dc b6 3a c0 4e 4e 84 bf 6a 53 9f bf
       -1.8679105 -2.9174109 -1.0336397 -1.2447331
000070 e6 8f ed bf ac b3 3d bf f6 14 19 c0 d0 91 14 c0
       -1.8559539 -0.7410228 -2.3919044 -2.3213997
000080 1e ab 21 bf 1f a3 da bf 6a 7e 98 bf 38 d2 91 bf
       -0.6315173 -1.7081031 -1.1913579 -1.1392279
000090 54 c1 5d bf dd 77 23 c0 19 07 0f c0 9c f9 f1 bf
       -0.8662312 -2.5541909 -2.2348082 -1.89043
0000a0 0c 6d 9d bf 61 bb f0 3e 37 49 06 c0 4d 3c 66 bf
       -1.2298903 0.4701796 -2.0982187 -0.8993576
0000b0 df 5a 17 bf 3d bf 50 c0 ec c2 3e bf 66 eb 0f c0
       -0.59123033 -3.2616723 -0.7451618 -2.2487426
0000c0 ae 2d a6 bf ee 82 13 c0 0d 26 e4 bf 7d 91 87 3f
       -1.298269 -2.3048663 -1.7824112 1.0591274
0000d0 58 94 25 c0 09 1c 0f c0 c4 27 e7 bf be f7 a2 bf
       -2.5871792 -2.2360861 -1.805901 -1.2731855
0000e0 a9 97 05 c0 57 07 0d c0 16 4e 00 bf 00 d4 35 c0
       -2.0873816 -2.203573 -0.5011915 -2.8410645
0000f0 a7 6f 2b bf 6c 52 22 c0 f2 63 b1 bf 01 b0 e6 bf
       -0.6696724 -2.5362806 -1.3858626 -1.8022462
000100 09 ba 87 be 90 23 cf bc 91 bb 40 c0 7d 60 84 3f
       -0.2650912 -0.025285512 -3.0114481 1.0341946
000110 df 91 a9 3f bb f1 3c bf 3e 9c 31 bd 43 a0 33 c0
       1.3247641 -0.7380635 -0.043361895 -2.8066566
000120 24 e0 bd bf 83 f5 dd bf c5 ee e3 3d 58 38 d7 bf
       -1.4834027 -1.7340549 0.11129526 -1.681407
000130 54 93 ba bf 09 93 08 c0 0d 3d 2c c0 09 9a ea bf
       -1.4576211 -2.1339743 -2.6912262 -1.8328258
000140 ea 8d 1f c0 76 52 01 c0 d3 b7 1a c0 c4 54 0a c0
       -2.4930367 -2.020658 -2.4174697 -2.1614237
000150 17 03 0d bf 2b 31 a4 bd da d6 97 bf c5 8b bd 3e
       -0.5508284 -0.080171905 -1.1862442 0.37020698
000160 08 09 51 bf 2e 02 13 c0 9d 83 35 c0 8a c8 b5 3c
       -0.81654406 -2.297008 -2.836158 0.022190351
000170 3f 73 2d 3f b7 90 1c 3f b2 0a 69 c0 45 b6 1e c0
       0.67753977 0.6115832 -3.6412778 -2.4798748
000180 0c d8 e3 bd 85 e5 84 be 27 ae 28 c0 1e 80 47 bf
       -0.11125192 -0.2595636 -2.6356294 -0.77929866
000190 f0 f6 0d 3f 83 1c 9b bf 5f 23 14 c0 11 f8 66 3f
       0.5545492 -1.2118076 -2.3146589 0.9022227
0001a0 f0 c8 dd bf 83 c8 e7 bf 48 38 c4 be 75 64 1e c0
       -1.7326946 -1.8108066 -0.3832419 -2.4748814
0001b0 60 78 ee bf ae ed 4b be a4 3a 3e c0 98 51 56 bf
       -1.8630486 -0.19914886 -2.9723291 -0.8371825
0001c0 27 c2 fe bf cb 6f e4 bf 91 04 a4 bf 7a 90 db bf
       -1.9903 -1.7846617 -1.2813894 -1.7153466
0001d0 bc a4 0b c0 4b 89 0b 3f 18 2c 61 bf c4 3c db bf
       -2.1819296 0.5450637 -0.87957907 -1.7127919
0001e0 93 82 1f c0 b2 e2 67 bf 06 c7 20 c0 b7 62 2f c0
       -2.4923446 -0.90580285 -2.5121474 -2.7404
0001f0 07 51 dc bf 7f 4c 26 c0 d4 02 26 c0 18 3d b5 bf
       -1.7212228 -2.598419 -2.5939226 -1.4159269

net.8.weight f4 [128, 128]
000000 8d 44 45 c0 61 7a b5 c0 9d e6 ae 3e 87 c3 cf bf
       -3.082309 -5.671189 0.3416032 -1.6231545
000010 2c 74 e1 3d 5a 79 10 bf 63 dd 4e bf c6 7d dc bf
       0.11008486 -0.5643517 -0.8080656 -1.7225883
000020 de 09 8c bf e7 7d 4d bf 17 d7 db 3f 89 e7 2f bf
       -1.0940511 -0.80270237 1.7175015 -0.6871267
000030 f7 3c 3b c0 23 b8 bb bf c2 8d bf 3e 88 fe 0e c0
       -2.925596 -1.4665569 0.3741284 -2.2342854
000040 1a 58 9a bf 05 40 02 be 9d 82 1f 3f e7 f3 6b c0
       -1.2058136 -0.12719734 0.62308675 -3.6867616
000050 96 72 02 bf c4 eb c7 be 4d 27 e9 bf 4c 57 19 3e
       -0.50956094 -0.39047062 -1.8215119 0.14974707
000060 e5 6f 70 3f ad 61 21 40 36 a3 7f bf b9 49 82 bf
       0.9392074 2.5215867 -0.99858415 -1.0178748
000070 30 c1 68 be ee ad 5f bf 0b 6d 72 3e 81 b1 68 bf
       -0.22729945 -0.8737477 0.23674409 -0.9089585
000080 e7 d1 37 c0 f4 e7 24 3f 67 06 48 c0 e0 95 21 bf
       -2.8721864 0.6441643 -3.1253908 -0.63119316
000090 fc 1b 19 c0 67 6f 2f bf e3 b5 eb bf bd 03 95 be
       -2.392333 -0.6852936 -1.8414882 -0.29104415
0000a0 ff a9 3e bf c8 f0 4f c0 1c 64 35 3e 73 c1 26 c0
       -0.74478143 -3.2490711 0.1771397 -2.6055572
0000b0 95 c0 b4 bd 41 c2 81 be be 89 a7 3f f5 39 a6 bf
       -0.088257946 -0.25343516 1.308891 -1.2986437
0000c0 da 76 93 bf 0b 8e c8 3e bb 94 f6 bf 69 4c 24 3f
       -1.1520646 0.3917087 -1.9264139 0.6417909
0000d0 2f 03 d5 bf f4 42 0f bf ea db 65 3f e3 c0 53 3f
       -1.6641597 -0.5596154 0.8978869 0.82716197
0000e0 f9 16 4a 3d b5 2c 03 bf 39 da 41 3f 4a f5 89 bf
       0.049338315 -0.5124009 0.75723606 -1.0777981
0000f0 cb ee 66 3e c0 43 94 bf 07 79 31 bf e1 1c dc be
       0.2255203 -1.1583176 -0.693253 -0.42990783
000100 1d 83 21 be 41 6b d5 bf 7d 86 ae bf eb 92 81 3f
       -0.15772672 -1.6673356 -1.3634793 1.0122961
000110 29 0b 4b bf 9d 1e 0b 3e 4d 1b 0d c0 c4 55 c5 be
       -0.79313904 0.13585897 -2.2047913 -0.38541996
000120 d0 73 6f bf e3 d7 7e c0 4b e5 52 bf da df af bf
       -0.9353609 -3.9819267 -0.82381123 -1.3740189
000130 a0 1f 10 3f 74 b2 4d bf a0 47 60 bf 52 56 11 3e
       0.56298256 -0.8035042 -0.8760929 0.14193085
000140 bb fd b1 bf 41 68 c2 bf 50 61 51 bf f5 97 71 be
       -1.3905557 -1.5188066 -0.8178911 -0.23593123
000150 4d 4e b3 3e f0 67 82 bf a7 38 9f bf 81 95 b1 3d
       0.35020676 -1.0187969 -1.2439164 0.08671094
000160 bd 26 f2 bd ac 1e ec 3f f2 cc 2d c0 08 09 ab bf
       -0.11823795 1.844686 -2.7156339 -1.3362131
000170 e8 5c c8 3f c8 85 31 c0 ef 62 a8 be da 56 24 bf
       1.5653353 -2.7737904 -0.3288798 -0.64195025
000180 f7 16 96 bf f4 cc 6c be 93 b4 8f 3c 8b 8c 30 bf
       -1.1725758 -0.23125058 0.01754216 -0.6896445
000190 b6 82 61 3e 14 a7 47 bf d3 c5 2c bf 69 20 57 3f
       0.22022519 -0.77989316 -0.67489356 0.8403383
0001a0 87 8d 43 bc 13 48 47 c0 aa 01 3b 3f f6 ea be bf
       -0.011935598 -3.113774 0.73049414 -1.4915454
0001b0 99 c2 b8 be c1 4c 7c 3f 78 8e fe be dd 11 cc 3e
       -0.36085966 0.9855462 -0.4971807 0.3985738
0001c0 cc c8 03 c0 37 d6 4f c0 6a f7 d7 3e 0f 2c 4e bf
       -2.0591307 -3.2474496 0.4218095 -0.8053598
0001d0 8a 7e b4 be 33 b4 8d c0 e7 52 3d c0 c5 28 aa bf
       -0.35252792 -4.428247 -2.958185 -1.3293692
0001e0 61 62 4d bf 6d 90 06 40 97 d5 79 bd cb 46 ed bf
       -0.8022824 2.102565 -0.06099471 -1.8537229
0001f0 6f c4 ac be aa ca 83 bf 7f e4 41 bd 49 95 21 3f
       -0.33743617 -1.0296223 -0.04733705 0.63118416
000200 a8 31 ab bf ac 8a f8 3f a8 c6 86 c0 fa 88 d8 bf
       -1.3374529 1.9417319 -4.21175 -1.6916802
000210 2a 4b cd bf ac 90 f5 bf a6 4e 73 c0 c3 e4 d3 3f
       -1.6038563 -1.9184775 -3.8016753 1.6554188
000220 b3 02 01 bf 58 e4 1d be 43 00 38 c0 e5 10 22 c0
       -0.50394744 -0.15419137 -2.875016 -2.5322812
000230 8a a3 98 bf 59 78 b4 be 00 b0 91 bf ca 33 44 be
       -1.1924908 -0.35248068 -1.1381836 -0.19160381
000240 c1 12 f0 3f 15 51 83 bf 89 09 36 40 63 04 be 3f
       1.8755723 -1.0259119 2.844332 1.4845089
000250 95 b8 20 3f 9b 52 ad 3f c2 db ec bf d0 7b b5 bf
       0.6278165 1.3540834 -1.8504565 -1.417841
000260 c9 d5 a2 c0 db 20 2f be 0a 22 8a 3f b3 9c 1c c0
       -5.088597 -0.17102377 1.0791638 -2.4470642
000270 66 bc 17 bf 27 0b 2b c0 62 24 da bf 8b e6 25 3f
       -0.5927185 -2.6725557 -1.7042353 0.64804906
000280 e2 d9 05 c0 3c 64 22 c0 c3 1a 76 be 94 51 6e bf
       -2.0914235 -2.5373678 -0.24033646 -0.9309323
000290 0a ee e1 bf dc b1 48 bf 68 34 5c be fe e9 b5 bf
       -1.7650769 -0.7839639 -0.21504366 -1.4212034
0002a0 a9 79 5d 40 07 93 6c 3f 41 a3 d2 be 94 1d 95 c0
       3.4605505 0.92411846 -0.41140178 -4.6598606
0002b0 c3 3e ac bf a1 09 37 bf 30 94 8d bf ab a2 73 bf
       -1.3456653 -0.7149907 -1.1060848 -0.95170087
0002c0 47 c0 8f 3e 75 93 56 be 9a 56 2b 40 3f bf bd c0
       0.28076383 -0.20954688 2.6771607 -5.9295955
0002d0 1c 5f 64 3e 15 a6 20 bf 27 2e 84 c0 be a4 2b c0
       0.22301906 -0.6275342 -4.130634 -2.68193
0002e0 22 65 72 bf 80 6f b7 bf 9a 9e e8 3f d0 48 c6 be
       -0.94685566 -1.4330902 1.8173401 -0.38727427
0002f0 d7 f4 55 40 f5 5e dc bf a9 55 14 3e a6 3a 54 bf
       3.3430688 -1.7216479 0.14485802 -0.8290199
000300 2c d8 24 c0 33 76 6b 3f c0 ce 07 c0 b4 e9 be c0
       -2.575694 0.9197723 -2.121994 -5.966028
000310 82 20 71 bf bf 79 30 bf f4 a9 76 bf 71 17 13 c0
       -0.9419023 -0.6893577 -0.9635308 -2.2983057
000320 92 a0 e1 bf ca 59 86 c0 99 c5 12 c0 af c7 18 c0
       -1.7627127 -4.1984606 -2.2933104 -2.3871877
000330 af 0c 6d bf 2c f3 a0 bf fa 46 1a bf 02 ae c5 bf
       -0.9259748 -1.257421 -0.6026455 -1.5443728
000340 c9 be 3c 3f 5f 81 46 be cd 51 37 bf 78 77 b8 bf
       0.73728615 -0.19385289 -0.71609193 -1.4411459
000350 f7 b4 e5 bf 17 63 a8 bd bc df 29 c0 3e 62 40 bf
       -1.7945851 -0.08222025 -2.6542807 -0.75149906
000360 e5 ed a7 bf bb 35 a7 bf ac e6 51 3f e2 1e 4b c0
       -1.3119475 -1.3063272 0.819926 -3.17376
000370 2a c3 9d c0 76 80 ca c0 e1 ee 5c bf d9 a2 a5 bf
       -4.9300737 -6.3281813 -0.86302 -1.2940322
000380 69 ea a1 bf b0 ec 4e 3f 30 c8 2a bf 18 ec 80 c0
       -1.2649661 0.80829906 -0.6671171 -4.02882
000390 6a 45 94 bf b9 4c 06 c0 aa ad 87 bf ca 03 b7 c0
       -1.1583683 -2.0984328 -1.0599873 -5.7192125
0003a0 c2 82 a3 bf 99 b0 1b c0 0a 87 a4 bf df 45 c3 c0
       -1.2774279 -2.4326537 -1.2853711 -6.102279
0003b0 f3 83 c4 bf eb 6d 37 c0 4c 70 7e be da cf 63 c0
       -1.5352768 -2.8660839 -0.24847525 -3.5595613
0003c0 d8 70 3a c0 eb 42 9e bf 56 25 87 c0 d7 37 28 bf
       -2.9131374 -1.2364172 -4.2233076 -0.65710205
0003d0 bd f4 84 bf db 3d f8 3f fa b9 eb 3e 31 52 84 bf
       -1.0387188 1.9393877 0.46040326 -1.0337583
0003e0 60 11 31 c0 ad fc 85 c0 09 67 80 bf e8 a3 f7 bf
       -2.7666855 -4.187094 -1.0031444 -1.9346895
0003f0 87 85 00 c0 2d 09 18 c0 44 91 79 bf e0 15 e7 bf
       -2.0081499 -2.37556 -0.9748728 -1.8053551
